tests/python/byo3la/ilavta/mlp_pt_pretrained.pt (torch_old, 438612 bytes, 6 tensors)

linear_1.weight f4 [128, 784]
00000000: 1e3e febc 101b 443b e8e5 e9bc 5a2b e33c
00000010: c535 a8bc 7acc f8bc 00a3 4cbb c07f fa3a
00000020: 7a92 bd3c 4656 63bc 0a5e 8dbc 42f0 983c
00000030: 970a 873c 6cb4 c43c 4a76 ed3a 75cd debc
00000040: 2251 b83c 681a 813b 6e75 fabc 0cb0 a13c
00000050: b054 e93b 40b0 103c b6fb df3c f06c be3c
00000060: b067 bcbb b4ac 5f3c 6cae b23c 3a3a e83c
00000070: 483e e4bc 17b3 003d db4d 003d ae43 aa3c
00000080: c4b8 313c f55b 313c 6d07 ccbc 3ce0 0f3c
00000090: 0d69 bfbb 37ad 9c3c 8daf 9a3c db8c ffbb
000000a0: 2c1b f33c 45a2 f7bc 086b 553b 47f9 e73c
000000b0: da2d e7bc cffd d53c 0155 ea3c 837e e43c
000000c0: f7d4 f13c 4b43 a1bc 0bdd ccbc 1cda 82bc
000000d0: b6ca ed3c 5cbb 9fbb 53de 0c3d 6021 6bbc
000000e0: 0e56 a83c 7dda 0c3d 56ef b23c 9983 113d
000000f0: 2e25 0dbc f2a4 f5bc 7837 0cbd 5010 903c
00000100: f0b7 1f3c 6d32 0ebc 988b a4bc 316b 873c
00000110: beb2 17bd 90f8 c3bc c584 7dbc 1d4b 9b3c
00000120: 9bb9 b638 6bc9 aabc 9c37 8a3c 7ebf 24bd
00000130: 33b3 573b b59a 10bc 9191 343b 7104 ff3b
00000140: cdc8 fc3a c353 033d eab9 3ebc d0a4 1f3b
00000150: ced9 67bc 279b 0cbd 2151 843c b9af 6abc
00000160: 6611 92bc 2c08 fd3c 53d6 cebb 5815 1f3c
00000170: 1e3a b7bc 519a 453c 4332 56bd 2c60 8d3b
00000180: 59a6 d6bc 4359 a7bd 0b0b 0abd 147d 42ba
00000190: 92c5 0cbd 5d9a 3ebd dc06 adb9 057e 473c
000001a0: e1e4 02bd 7db4 943c abdc bfbc 2659 b73c
000001b0: 4ee6 ae3c 7767 a2ba fe79 a73b 965f 923c
000001c0: caa9 8ebc 7187 b2bc 30ef ed3c f34d 94bc
000001d0: cbcb 063d deb7 3cbc 7f22 a13c 7ecd 22bd
000001e0: 08f3 1bbc 0ab9 21bd 4dd1 67bd 1fc9 14bd
000001f0: db56 5dbb 4db1 efbc 6be2 93bd e7e3 89bd
00000200: 6568 9fbc c8f2 16bd 643d 92bc 10a2 c23c
00000210: 40b0 95bb 13a3 10bd b727 903b 5e07 adbc
00000220: e94b 463c 1c08 f23c a6d2 e4bc 6701 f6bb
00000230: fa40 b8bc 182c bc3b ca9f e9bc 4918 61bb
00000240: bd3c 5cba 6e24 643c ba85 f03c 888c ab3c
00000250: 16c8 93bc 7d11 0ebd f7b3 4cbb 420f 9f3d
00000260: ab76 b33d 3b71 8b3d 2c5f 5d3c cb9b 8dbd
00000270: 8d2f 89bd 6646 d93c dc32 8ebc 23f7 243d
00000280: 66f2 243c fcb7 b23b 6209 7ebd c696 52bd
00000290: f0db 08bc a11d cf3b 7a55 ccbc 2e13 0e3d
000002a0: 87d5 83bc 07a1 bbbc 0989 d4bc 155d 87bc
000002b0: d164 1b3c f1ad 13bc 5914 bfbc f476 a3bc
000002c0: 9005 cbbc 012a 0bbc 431e 293d 0ba1 573d
000002d0: 1e44 ff3c d825 6e3b 4beb f03b cc3d c53d
000002e0: a9a5 ed3c 8857 823d bf97 3f3d 8fdc 5c3c
000002f0: d94b 0abd 0003 1dbc 12fe 813a 446f 083c
00000300: a866 19bd 7e2e 24bc 7723 01bd 0f35 ba3c
00000310: 5e97 0cbd aee0 f43b 2d76 2ebc 5019 87bc
00000320: 9142 803c 899f ffbc ff3f 8fbd f5b9 85bd
00000330: 5e3c 98bd d4d9 b8bc 41c2 273d 6863 193d
00000340: 9433 ac3c a71b 5b3d 0ab1 163d 9edf 983d
00000350: 9857 133d 0e66 00bb 8880 fb3c 4b14 be3c
00000360: 728b 29bb 87da cdbc 12d3 4439 ef8c 03bc
00000370: 95c3 d6bb 11f4 683c 3d14 bf3c a1d9 10bd
00000380: 7a13 c6bb e48d 16bd 9f54 d4bb 0ac3 68bc
00000390: a226 213c 2c69 93bd 4156 6abb 101c 52bd
000003a0: 6fb3 b3bc 23b2 b03b e596 b73c a809 933d
000003b0: d04f 1a3c febb 893a 9717 2b3d 316e fbbc
000003c0: 16e3 703b c8cd 52bd b8ac 0939 edca 833d
000003d0: 0d8a a6bc 1149 613d a2dd 27bd dd53 81bd
000003e0: 3685 04bb 9d16 1f3d cd36 043d ef78 4dbc
000003f0: 119b 863c 6be4 08bd 855a 963c 8907 dd39
-0.03103548 0.0029923357 -0.02855201 0.027730633 -0.020533452 -0.03037094 -0.0031225085 0.0019111559
0.023141135 -0.01387555 -0.017256755 0.018669251 0.016484542 0.024011813 0.0018116918 -0.027197579
0.022499625 0.0039399154 -0.030573573 0.019737266 0.0071206912 0.008831084 0.027341705 0.023245305
-0.005749665 0.0136520155 0.021811686 0.028348077 -0.02786173 0.031420793 0.03132425 0.020784225
0.010847274 0.010825147 -0.024905885 0.008781489 -0.0058413805 0.019125564 0.018882537 -0.0077987737
0.029676042 -0.030228743 0.0032565016 0.028317107 -0.028220106 0.026122002 0.028604986 0.027892357
0.029520495 -0.019685408 -0.025007745 -0.015973143 0.029027324 -0.00487463 0.034391712 -0.014351219
0.020548847 0.034388054 0.02184264 0.035525892 -0.008614821 -0.029985879 -0.034232587 0.017585903
0.009748444 -0.008679015 -0.020086095 0.016530605 -0.037035696 -0.023922235 -0.015473549 0.018956715
8.713008e-05 -0.020847997 0.01687222 -0.040221684 0.0032913208 -0.0088259475 0.0027552585 0.007782512
0.0019285918 0.032062303 -0.011641005 0.002435971 -0.01415105 -0.034327652 0.016151967 -0.014324122
-0.017830562 0.030887686 -0.0063121705 0.009709679 -0.02236658 0.012060718 -0.052294027 0.004314443
-0.026202368 -0.08171322 -0.033701938 -0.0007419151 -0.034368105 -0.04653393 -0.00033002242 0.0121760415
-0.031956557 0.01815247 -0.023420652 0.022381376 0.021350052 -0.0012390454 0.005110978 0.017867845
-0.017414946 -0.0217931 0.029044718 -0.018103575 0.032909196 -0.011518447 0.01966977 -0.039746754
-0.009518392 -0.039483108 -0.05659609 -0.036324617 -0.0033773694 -0.029259348 -0.0722092 -0.06732922
-0.019458959 -0.036852628 -0.017851539 0.023758918 -0.00456813 -0.03531177 0.0043992656 -0.021121677
0.012103059 0.029544882 -0.027932476 -0.0075074914 -0.02249192 0.005742561 -0.028518576 -0.003434675
-0.00084013847 0.013924701 0.02936064 0.020941034 -0.018039744 -0.034684647 -0.0031235197 0.07766582
0.087628685 0.068087064 0.01351146 -0.06914481 -0.06698523 0.026522826 -0.017358236 0.04027475
0.010067558 0.0054540616 -0.062020667 -0.05141332 -0.008353218 0.0063206707 -0.024943102 0.03468626
-0.016093029 -0.022903932 -0.02594425 -0.016523877 0.009484486 -0.009013639 -0.023325132 -0.019954182
-0.024782926 -0.008493901 0.041288625 0.052643817 0.03116041 0.0036338475 0.007352268 0.096309274
0.029009657 0.063643515 0.046775576 0.01348032 -0.03376374 -0.009583235 0.0009917638 0.008327309
-0.037451416 -0.01002085 -0.031527963 0.022730378 -0.034324042 0.007473073 -0.0106482925 -0.016491562
0.015656741 -0.031204002 -0.06994628 -0.06529609 -0.07433389 -0.022564806 0.04095674 0.037448317
0.021020688 0.05349317 0.03678993 0.074645266 0.035972208 -0.001959208 0.030700937 0.023203036
-0.002587047 -0.025128616 0.00018770646 -0.008029207 -0.006554077 0.014218346 0.02332508 -0.035363797
-0.0060448023 -0.03675641 -0.006479814 -0.014206657 0.009835871 -0.07197794 -0.0035756978 -0.051296294
-0.021936147 0.0053923293 0.02241082 0.07179576 0.009418443 0.0010508297 0.041770544 -0.030692192
0.0036756448 -0.05146578 0.00013129681 0.064351894 -0.0203295 0.055001322 -0.04098285 -0.06314824
-0.0020221001 0.038839925 0.032278825 -0.01254104 0.016431363 -0.03342096 0.01835371 0.0004215802

linear_1.bias f4 [128]
00000000: 5bea 393c 4ea5 063e 1112 a8bb d17d 48bd
00000010: 0d6d 60bd 052b efbb 5be2 0a3e ba80 65bd
00000020: 7ed4 313e 14d9 3fbd 0d5a 95bd 06cd b0bd
00000030: 21c4 843d d332 01be 2877 92bc cc71 d6bd
00000040: be7c 523d f961 993d 9c8d 43be ac58 37bd
00000050: 2305 b53b 1545 40bc 7794 963e 534c 233e
00000060: 5cfc cf3c 99e1 f23d bfcb 003e 1852 58bd
00000070: f174 7a3d 14f3 c1bd f0ad 6b3e 2c39 ba3c
00000080: f888 443c dd6b e83c 72dd f6bc cb81 813e
00000090: 4911 0f3e 5387 7f3c 2042 2d3d 7545 823d
000000a0: b6e9 013e a515 2c3d 06b9 ed3d 5144 5f3d
000000b0: df80 8abd 4f20 023e b3b9 45bd e962 973c
000000c0: 3cf1 923d 377f d83c 48ef 01bc 8534 193e
000000d0: 44e9 953c ab2d 74bb 9a04 e0bd 6926 c9bc
000000e0: 3bae 543e 1919 2cbd 19ee 383e 6000 21be
000000f0: 9862 853c bcc0 b6bd 51f7 24be 3da5 f73d
00000100: 5797 533d d99c 383c 83d5 553d d569 053e
00000110: 6f69 9bbd 8c01 8c3d 88d9 bbbd ac0f 143e
00000120: ba29 603c 3786 323e 97b5 a13d 4163 023d
00000130: fb0b 0abd 05b9 06bd acba d9bd 67ff ce3d
00000140: a282 103d cbd0 2d3b d55d 05be a07f b7bd
00000150: 0c13 1fb8 1699 4c3d c7ea 9f3b fa10 023e
00000160: c68c a4bd 414d 863e 647a 9d3d 0d77 803c
00000170: c1dd adbb f45a 183d 99d4 f63d 0c62 29bd
00000180: dcab 3b3e 4f38 853d 3a85 1f3d 9261 25bd
00000190: 1fca 323d e2c9 e1bd 3591 583c a14e 5d3c
000001a0: 6d17 92bb a843 413d 8f79 b93d 9ada 513d
000001b0: d50a 453c f9d6 4ebd 3481 793e 9c89 343b
000001c0: d44a ad3c 3188 bc3d 4f72 083d f408 843d
000001d0: 79f1 80bd 11bb 65bd af19 80bc 33c8 bebd
000001e0: 15c6 89bc 2deb 9f3d ebe4 a33d 8fa6 c5bd
000001f0: e476 b93d 11d9 da3d ec9a 16bd 8284 c2bd
0.011347379 0.13148996 -0.005129107 -0.048948113 -0.0547915 -0.0072988295 0.1356291 -0.056030966
0.17366216 -0.04683788 -0.072925664 -0.08632855 0.06482721 -0.12617044 -0.017879084 -0.10470924
0.051388495 0.0748939 -0.19096988 -0.0447623 0.005524294 -0.01173522 0.29410145 0.15947084
0.025388889 0.118594356 0.12577723 -0.052812666 0.06114668 -0.094701916 0.2301557 0.02273234
0.0119955465 0.028371746 -0.03013489 0.25294337 0.13971438 0.015596229 0.04229939 0.06360904
0.1268681 0.04201283 0.11607556 0.05450851 -0.067628615 0.12707637 -0.0482728 0.018479781
0.07174918 0.026427848 -0.007930584 0.14961441 0.018299706 -0.0037258666 -0.10938378 -0.024554448
0.20769589 -0.042016122 0.18059577 -0.157228 0.016282365 -0.0892348 -0.16109969 0.120920636
0.051658 0.011267864 0.052205574 0.13028653 -0.07588469 0.068362325 -0.0917235 0.14459103
0.013681823 0.17434011 0.07895964 0.031832937 -0.03370283 -0.032891292 -0.10631308 0.10107308
0.03528083 0.0026522155 -0.13024075 -0.089598894 -3.7926293e-05 0.04995068 0.0048802826 0.12701789
-0.08034663 0.26230815 0.0768936 0.015681768 -0.005305976 0.037196115 0.120522685 -0.04135327
0.18327278 0.06504881 0.038945414 -0.040376253 0.04364979 -0.11024834 0.013218214 0.013507516
-0.004458359 0.047183663 0.090563886 0.051233865 0.012026508 -0.050497983 0.24365693 0.0027547842
0.021153845 0.09205664 0.03331214 0.0644702 -0.06296057 -0.056086604 -0.015637247 -0.09315529
-0.016818086 0.07808528 0.08002647 -0.09650909 0.0905588 0.106859334 -0.03676884 -0.0949793

linear_2.weight f4 [64, 128]
00000000: e3b8 68bb 00bc 483d 5719 283e 6261 ac3d
00000010: 6956 a43d 32c2 b43d 2633 8a3d 48d7 103e
00000020: 3b6b 05be a10b 1bbe 54b1 b33d 575c 583c
00000030: 571d 913c 80ca a93a c5ab 2a3d d897 eabd
00000040: 93c6 c6bd 23ef ac3d ccac 88be d005 eabd
00000050: 3916 ad3d 40cc 1abe de5c c8bd b7a1 093e
00000060: 196c efbd 9078 e23d 7821 39be eded 853d
00000070: a08d 2c3e a358 6f3d 7e11 73bd 1f5f 613d
00000080: 138b e5bc 8ad1 333c dc69 973d 163c 51be
00000090: 45f8 0e3d 8cff 1b3e 1189 173e 8606 593e
000000a0: 5e49 cbbd ae57 e43d 378e 653d d120 c4bb
000000b0: 2aee 59bd 22dd 79bd 13e2 c03d 9f5e 31bb
000000c0: 126b e93c 9232 d93b 38e7 a6b8 42cb b1bd
000000d0: 600f 313d aa4e 623d 6df6 debc 6d64 02be
000000e0: bbad d83d e5b0 e2bc aaf3 043d f002 6fbe
000000f0: 34ff 75bd efdc b13c d66b 13be c83e 123e
00000100: cb72 a83b 8a7a 583d e791 cabd 6ea4 183d
00000110: 7079 333c c6f2 333d d8a1 e6bd b05f e7bd
00000120: f05f 023d e2f8 afbc 9d22 17bd b35e 043e
00000130: 6c8f 1fbb 4a73 ad3d bc8e 22bb 6293 60bd
00000140: 1fd7 31be 4703 07bc 6ef1 e9bc 05a2 34be
00000150: 188a 313c 6016 68be a379 d33c 5576 bb3c
00000160: 0a70 31be 5c6a eabd 7e1b 333e b69b cf3d
00000170: 1510 073e 9bbf 8bbc f77f 583d 1e7e 64bd
00000180: 8154 2d3e ebdc 1d3e c5b0 dfbd b69f 8d3d
00000190: 28d1 bf3a 050f b1bd 4e9f ab3c a8d3 763d
000001a0: e6f8 65bd 108c 48be c4a3 07bc 943e be3d
000001b0: 2b31 4bbe b20a 903d 8ec4 0dbd 2f10 473c
000001c0: ecf7 00ba 3138 24bd 8aba 0a3e 6671 10bd
000001d0: 579c 683e 67b5 7abd dff3 3fbc cd04 7b3c
000001e0: fe7b 63bd 1d5c 00be add0 40be 1e20 91be
000001f0: fa41 973d c701 153e a952 243e 69d6 dd3d
00000200: d80f 8abd 87dd f83d 674f 263e 8247 c43d
00000210: 0204 3abe eb8f 63bc f589 aebb 7f12 c7bd
00000220: b84d 66bd d734 7e3d a421 203e 57c9 e9bd
00000230: 617a 773c d150 ab3d c3ad c53d 20b4 c73d
00000240: 137b a63d 17d2 0dbe 0a21 5fbe 9cbb fcbc
00000250: bb94 e33d 17fc 75bd 5296 68bd 58ff 67bd
00000260: d9b0 a63d 4357 f5bc b126 9cbd a7a1 4ebc
00000270: 70ee 933e 1ff0 023d 2683 b4bd 8ac7 983d
00000280: 72f6 3e3e 0a9e cebd 5c52 b3bd f0a3 4ebc
00000290: b858 93bd 4e0a 86bd 1f62 7dbe cceb 08be
000002a0: 077f fcbc 81c8 04be 5e89 10be eeca bb3c
000002b0: e7af 2d3c 21b5 2f3e cd59 29bd 8317 563d
000002c0: 03e9 aabd 9fac e93d 1c88 803d 13c5 b43c
000002d0: 96c1 c63d f081 dcbc a9cb 963d 1d69 adbd
000002e0: de48 31be db52 fe3d aac4 50be 127e 553e
000002f0: 0706 0ebd 797b 1a3b 7614 f43b 6e73 28bc
00000300: 707a 133d 9be8 8e3d f57d d93d 6f77 21bc
00000310: e32a 07bd 1895 0b3d 9644 913d 658f a1bc
00000320: 16e5 873c 9db5 953d 085d a63d 26b2 833d
00000330: 9041 29bc 4246 a5bd 761b fbbd 903d ab3d
00000340: 9587 cb3d 8614 763d e62c 2f3d cb4b 793d
00000350: b659 00be af80 89bc 34e9 733d 423d 1fbd
00000360: bd36 20bb 4b87 353d b0f0 223d 9336 c1bd
00000370: 781e bb3d 0ebd 14be 9077 89bd 68df b43d
00000380: 32dc 26bd 39b5 89bc 5a86 18be f3d2 553d
00000390: b4c9 d9bd f450 c8bd cdc7 b3bd f6c5 d03b
000003a0: a0c1 8d3d 1eb7 f63d dc4d 5c3d 867b b53d
000003b0: 52cf a8bd 5360 833c 9bd8 13be 9d75 76bd
000003c0: 8610 ee3d f915 293d 0687 023e 8815 2a3d
000003d0: 5c73 d4bd 9894 023e 6b4c 92be d42c 373d
000003e0: 7783 06bd bd3a 78bd cdc5 c2bc 0986 3abc
000003f0: aabd b13d 1b38 f6bd c237 1bbe 7e39 e73d
-0.0035510592 0.049007416 0.16415916 0.08417012 0.08024294 0.08826102 0.06748037 0.14144623
-0.13029186 -0.15141155 0.08774057 0.013205609 0.017714186 0.0012954026 0.04166772 -0.11454743
-0.09705844 0.08444049 -0.26694334 -0.1142689 0.08451504 -0.15116978 -0.09783338 0.13440596
-0.1169054 0.11058152 -0.18079174 0.06539521 0.168509 0.05843414 -0.059342854 0.055022355
-0.028020417 0.010975251 0.07393238 -0.20433077 0.034904737 0.15234202 0.1479838 0.21193895
-0.09926103 0.11149536 0.05604383 -0.0059853573 -0.053205647 -0.061001904 0.0941812 -0.0027064455
0.028493438 0.006628343 -7.958565e-05 -0.086813465 0.043227553 0.0552508 -0.027217114 -0.12733622
0.105800115 -0.02767224 0.03245894 -0.23340964 -0.060057834 0.021711795 -0.14396605 0.14281762
0.0051406375 0.052851237 -0.0989111 0.037266187 0.010954246 0.0439327 -0.11261338 -0.11297548
0.031829774 -0.021480981 -0.036898244 0.1292675 -0.002434696 0.08469255 -0.0024804315 -0.054828055
-0.17367218 -0.0082405275 -0.028557505 -0.1763993 0.010836147 -0.22664785 0.025814837 0.022883574
-0.17327896 -0.11446068 0.17490956 0.101371214 0.13189729 -0.017059138 0.05285641 -0.055784337
0.16926767 0.15416305 -0.10922388 0.06915228 0.0014634477 -0.08645443 0.020949986 0.060260445
-0.05614557 -0.1958468 -0.008278791 0.092892796 -0.19842975 0.0703329 -0.034611277 0.012149855
-0.0004919756 -0.04009265 0.13547722 -0.035264395 0.22715889 -0.061208155 -0.011715858 0.015320969
-0.05553817 -0.12535138 -0.18829603 -0.28344816 0.07385631 0.14551459 0.16047157 0.10831911
-0.06741303 0.12151628 0.16241227 0.095839515 -0.18165591 -0.013889293 -0.0053265044 -0.09720325
-0.056226462 0.06206211 0.15637833 -0.11415356 0.015104861 0.08365024 0.09652283 0.09751153
0.08128943 -0.13849674 -0.21789947 -0.030851178 0.111123525 -0.060054865 -0.05678398 -0.05664
0.081392 -0.029948836 -0.07624567 -0.012611783 0.2889285 0.03196728 -0.08814077 0.07459934
0.18648699 -0.10088737 -0.08755943 -0.012612328 -0.07194656 -0.06544934 -0.24744461 -0.133712
-0.03082229 -0.12967111 -0.14114901 0.022923913 0.01060102 0.17158939 -0.041345406 0.052268516
-0.08345225 0.11409878 0.06275961 0.022066629 0.09704892 -0.026917428 0.07363064 -0.084673144
-0.17312953 0.12418147 -0.20387521 0.20848873 -0.034673717 0.002357213 0.007448728 -0.010281427
0.036005437 0.0697796 0.106197275 -0.009855135 -0.032999884 0.034077734 0.0709316 -0.019721696
0.016588729 0.073100306 0.08123213 0.064304635 -0.010330573 -0.08070041 -0.12261097 0.083613515
0.099379696 0.060078166 0.042767428 0.060863297 -0.12534222 -0.016784994 0.05954857 -0.03887678
-0.002444669 0.04431848 0.03978032 -0.09434237 0.09136671 -0.14525244 -0.06712258 0.08831674
-0.04073734 -0.016810047 -0.14895001 0.05220313 -0.10634175 -0.097810656 -0.08778343 0.006371255
0.06921697 0.120466456 0.05378519 0.08861451 -0.08242668 0.016037142 -0.14438097 -0.06017076
0.11624245 0.04128072 0.1274682 0.04152444 -0.103735656 0.12751997 -0.28573927 0.044720486
-0.03284022 -0.060602892 -0.02377596 -0.0113844955 0.08678754 -0.1202242 -0.15157989 0.11290263

linear_2.bias f4 [64]
00000000: fa3b 8bbb c992 dbbc 2fa0 59bd d44c 0a3c
00000010: 029f c5bd 9a5d ee3d 1b03 4dbe abb2 eb3d
00000020: 9fc4 823d dbaf e43d a71c 0d3e ebde 473e
00000030: 0673 7e3e df8b 1dbe 4133 673e dd12 9d3d
00000040: 25bc 2dbc 34fa 223c bdf6 97bd f1dd cbbc
00000050: f696 863d 25c7 093e 85a3 19bd ab0b 6fbd
00000060: 8323 5c3d 7f2d fbbc 0b20 af3e a5c3 dfbc
00000070: 51b7 e5ba 9d7c 1cbe c9fa e33d fc09 263c
00000080: 2f50 ba3d 7846 9f3b 13b8 91bd 5b5c 183b
00000090: 4ca7 413d 8cd4 e93c 8427 3f3d fe8e 25bd
000000a0: 0491 3f3d 8ae6 983d 2ed6 153e 23a9 0a3e
000000b0: e76a 92bc 6410 2bbb b89d e83d 40f3 c33c
000000c0: 7c81 903e 759f e03a 8bfa 583e 64cd 803d
000000d0: 25f7 e83c 0a40 9a3b f672 943d f375 243d
000000e0: 24cf 973d c0a7 f83d 9715 43bd c0a5 7cbd
000000f0: 4cae 2cbd f925 eebc 39ca c33c 441b 963c
-0.004249093 -0.026803391 -0.05313128 0.008441169 -0.09649469 0.11638947 -0.20020716 0.115086876
0.06385159 0.11166354 0.13780461 0.1951863 0.24848565 -0.15385388 0.22578146 0.076696135
-0.010603939 0.009947348 -0.074201085 -0.024886103 0.06571762 0.13454874 -0.03750946 -0.058360737
0.053744804 -0.030661343 0.34204134 -0.02731497 -0.0017525946 -0.15281911 0.11131818 0.010134216
0.09097325 0.0048606955 -0.071151875 0.0023248408 0.047278687 0.028543733 0.046668544 -0.04041957
0.046769157 0.07465847 0.14632484 0.13541083 -0.01787324 -0.00261023 0.113582075 0.023919702
0.2822379 0.0017137366 0.21189325 0.06289175 0.02843816 0.004707341 0.072484896 0.040151548
0.07412556 0.12141371 -0.04762801 -0.06168151 -0.04215841 -0.029070841 0.023900138 0.018323548

linear_out.weight f4 [10, 64]
00000000: e35e 533e a078 883d 490d 49be 87de 09be
00000010: 61c4 93be d282 e3bc b000 043e 7e81 153f
00000020: 1898 42be d127 19be 2059 d2bd 2fa9 603f
00000030: f677 4abf 334f afbd 3424 d5be 47f6 203e
00000040: cd3b 2f3e afb6 47bf 8504 3b3e a46f 07be
00000050: afb8 e53e 50c9 5bbe 143a 89bc 8d96 c2bd
00000060: 2784 5d3f fb90 593e cc1d 69be 29c3 c83e
00000070: bf1d 40bd 44ef 94be 12c6 ddbd 952f d23d
00000080: da7e 00bf a7fe 9e3e c111 64be 4209 47be
00000090: 7fea 5d3f bad8 c93d 8177 8aba 27ce 023e
000000a0: 4eff a8be 0859 5abd 5a2d 12be 9773 2dbd
000000b0: c7b4 d13e 237e 203e 9627 fbbe efd4 d73d
000000c0: dc39 a1be 9a0c 4d3e c0b1 1cbf 652b 69be
000000d0: 0c6f ca3e b89f c0be f79d 3fbe fd2f 053e
000000e0: 4432 a93b 19b7 733e de0b e3bd ee32 17bc
000000f0: c698 c53e 5551 f43d dcb0 93bd 26ea d03c
00000100: 31a8 a8bb 935f 0c3d b1c7 4bbd c7f3 823e
00000110: 4eb2 c13c ef2e a6bd a273 383f 9a7c debe
00000120: ee50 80bd d006 9f3d be44 c9be 8503 4dbf
00000130: 2be5 fc3e 4638 0f3e 3cfa 87be 61f3 a7be
00000140: 3433 013d 6c02 213f 4fc6 0a3f d5b6 1b3d
00000150: d87e f1bd 8778 efbd 5449 8f3d 8e0f 153f
00000160: 89f9 e9bd 2221 b1be e8c9 dbbe 4074 ffbd
00000170: 5a40 3c3e e3e8 83be 53b6 bfbe 1d12 24bd
00000180: 7b6e b83e 3dbb 85be 29ec cdbe a026 523d
00000190: e9eb 45be d846 bbbd 348e 1cbe 57ce 37be
000001a0: 9649 e13d 6dd7 913e 8441 7dbd e6bd 25be
000001b0: 03d7 1fbd 0df2 51be 3f2c 43be 8142 afbe
000001c0: 0ac7 3bbe 22eb 3e3f 0b60 09bf 6f86 993d
000001d0: 76b8 0fbf 9fd3 31be 2c50 babd 5223 20be
000001e0: b129 dd3e 8702 cc3e 4b62 8b3d d378 f33e
000001f0: 50ce 933e 6786 ce3e 74e4 413f f798 0f3d
00000200: c5d9 733e ddb6 e3bd 6977 203f 9962 4fbe
00000210: d6f3 8c3e 52cc db3d 2512 2a3f d01d 8e3c
00000220: 3e7e 5ebe d147 a53d 5ef9 d7bd 26ba edbb
00000230: e670 2e3e d386 013f 8855 183f 187f 433e
00000240: c8d5 2ebf 3da0 9abe 1f0b 6abe 680d 1dbe
00000250: 0b21 f43e 65e5 06be e28d 8a3d 6cc2 053f
00000260: 9149 493e 9e97 e9be ac4c 17bf 1845 66be
00000270: ced7 dbbe 077c 353e 69cb 4b3f 86ff 0d3e
00000280: d8a8 f8be 495a 90be 6fc1 48be deb3 82be
00000290: bba8 ba3e 3b9e a63d e502 2a3e eefd af3d
000002a0: 342c 773d d5a6 6f3f be79 253f 62c3 73bf
000002b0: d0a8 303e dc4d 133f 3158 18be 3497 dcbe
000002c0: fbb7 8e3e baa1 86be 91c9 d13b e493 b2bc
000002d0: 5696 803e 9456 833e 87e6 92bd 2578 c13d
000002e0: ae51 1b3e b803 f1be 0a03 a0bc 0c63 a2be
000002f0: 3a32 e7be 9fc9 b9be b72c 593e 8e14 cbbe
00000300: 8992 e2be a928 3a3e 794f bf3e ffff 75bd
00000310: d596 fa3d 53b7 c53d 6105 073f 1665 84be
00000320: 148a 313b 8cb7 03be 757d 373f 43f2 2dbf
00000330: 027b 0abe b2fc 02be 6621 853e f8ca cabd
00000340: cc2b c0be 52cc a8be 46ac ec3e 8271 463e
00000350: f10f 8c3e 3473 2bbf cf39 22be bb34 533e
00000360: 9c77 1dbf df17 073e 8772 623e 6524 27bd
00000370: fc61 cf3e 7a65 aa3f 225f 2fbe 19fc babe
00000380: fdd9 0bbd a820 c83d 102d a33e 3c4f 00be
00000390: 52cb d93c 08f6 033e 8b32 663d 6450 02be
000003a0: 2cdb 68be 134f cbbe 7034 333e dc4a f83d
000003b0: 2bdc c2be 29f8 48bd 25f7 393f 094c a73e
000003c0: 8905 23bf 75ff b7be b367 a23e bf9c fb3d
000003d0: 0424 93bd 97de babd 531f 88bd 6177 07be
000003e0: 7839 a63b 6a14 f2be 0819 e73e b52b 213d
000003f0: f134 67be d9c9 bdbc df96 14bf 9e10 8d3e
0.20641665 0.066636324 -0.19633974 -0.13463794 -0.28860763 -0.02777234 0.12890887 0.58400714
-0.19003332 -0.14956595 -0.102709055 0.87758154 -0.79089296 -0.08560028 -0.41629183 0.15718947
0.17112656 -0.7801313 0.18263443 -0.13226181 0.44867465 -0.21463513 -0.016751327 -0.095013715
0.86529773 0.21246712 -0.22765273 0.39211395 -0.046903368 -0.29088795 -0.108287945 0.10262982
-0.5019356 0.3105366 -0.22272398 -0.19437125 0.8668594 0.098557904 -0.0010564179 0.12773953
-0.33007282 -0.053307563 -0.14275113 -0.042346563 0.40958235 0.15673117 -0.4905364 0.10538661
-0.31489456 0.20024338 -0.61208725 -0.2277046 0.39537847 -0.37621856 -0.18712603 0.13006587
0.005163463 0.23800315 -0.11086248 -0.009228451 0.3859312 0.11929575 -0.072114676 0.025502276
-0.005147003 0.034270834 -0.049750987 0.25576612 0.023644593 -0.081144206 0.7205144 -0.43454438
-0.06265436 0.07764971 -0.3931026 -0.80083495 0.4939359 0.1398631 -0.265581 -0.3280287
0.03154297 0.6289432 0.54208845 0.03801616 -0.11791772 -0.11692911 0.06996408 0.5822686
-0.11424548 -0.3459559 -0.4292748 -0.12473345 0.18383923 -0.25763616 -0.3744379 -0.040056337
0.3602179 -0.26119414 -0.40219238 0.051306367 -0.19328274 -0.09144372 -0.15288621 -0.17949806
0.110003635 0.2848467 -0.06183006 -0.16185722 -0.03902341 -0.20502491 -0.19059847 -0.34230426
-0.18337646 0.74577534 -0.53662175 0.07496344 -0.5614084 -0.17365883 -0.09097323 -0.15638474
0.4319587 0.39845678 0.06805857 0.4755312 0.2886834 0.40336916 0.75739217 0.035057988
0.23813541 -0.11118863 0.62682205 -0.20252456 0.27529782 0.107323304 0.66433936 0.0173482
-0.21727845 0.080703385 -0.1054561 -0.0072548566 0.17035255 0.5059635 0.5950551 0.19091451
-0.68294954 -0.30200377 -0.22855805 -0.15337145 0.4768146 -0.13173445 0.06765343 0.5224979
0.1965697 -0.45623487 -0.59101367 -0.22487295 -0.42938083 0.17723094 0.79607254 0.13867006
-0.48566318 -0.28193882 -0.19605039 -0.25527853 0.36456856 0.08135649 0.16602667 0.08593355
0.06034489 0.9361394 0.6463889 -0.95220006 0.17251897 0.5754068 -0.14877392 -0.4308411
0.2787474 -0.26295263 0.0064022024 -0.021799035 0.25114697 0.2565199 -0.07172876 0.09446744
0.15167877 -0.4707315 -0.0195327 -0.31716192 -0.45155507 -0.36286637 0.21208464 -0.3966412
-0.44252422 0.18179573 0.3736532 -0.06005859 0.122358 0.09654107 0.5274258 -0.25858372
0.0027090358 -0.12862986 0.7167581 -0.6794779 -0.13523486 -0.12791708 0.26002043 -0.099019945
-0.37533414 -0.32968384 0.46225184 0.19379237 0.27355912 -0.6697266 -0.15842365 0.20625584
-0.61510634 0.131927 0.22114001 -0.040806193 0.40504444 1.3312218 -0.17126134 -0.3652046
-0.034143437 0.09771854 0.31870317 -0.12530226 0.026586208 0.12886822 0.056200545 -0.12725979
-0.22739857 -0.39708766 0.17500472 0.12123653 -0.380586 -0.04906479 0.7264274 0.32675198
-0.6368032 -0.35937086 0.3171974 0.12285756 -0.07184604 -0.09124487 -0.066465996 -0.13229133
0.005072769 -0.472812 0.45136285 0.039348323 -0.2257879 -0.023167538 -0.5804271 0.2755174

linear_out.bias f4 [10]
00000000: eba7 56be c197 043e 4f64 603d e98c 21be
00000010: 8014 4a3e fd2d 843d a972 fdbd 02c5 33be
00000020: 97d1 273e 9ce0 673d
-0.20962493 0.12948515 0.05478316 -0.15776409 0.19734383 0.06454084 -0.12375385 -0.17555621
0.16388546 0.05661069
